…
//localhost:8080/","height":4851},"executionInfo":{"elapsed":207557,"status":"ok","timestamp":1676375660803,"user":{"displayName":"Shujaat Ali Shariati","userId":"00539791853302699711"},"user_tz":-300},"id":"vsPSnGLyoF6u","outputId":"eaf65832-6197-4f9e-a36d-cb29c19d5c83"},"outputs":[{"output_type":"stream","name":"stdout","text":["Model: \"sequential_9\"\n","_________________________________________________________________\n"," Layer (type)                Output Shape              Param #   \n","=================================================================\n"," reshape_6 (Reshape)         (None, 10, 1)             0         \n","                                                                 \n"," conv1d_19 (Conv1D)          (None, 8, 64)             256       \n","                                                                 \n"," max_pooling1d_14 (MaxPoolin  (None, 4, 64)            0         \n"," g1D)                                                            \n","                                                                 \n"," conv1d_20 (Conv1D)          (None, 2, 128)            24704     \n","                                                                 \n"," max_pooling1d_15 (MaxPoolin  (None, 1, 128)           0         \n"," g1D)                                                            \n","                                                                 \n"," flatten_5 (Flatten)         (None, 128)               0         \n","                                                                 \n"," dense_12 (Dense)            (None, 50)                6450      \n","                                                                 \n"," dense_13 (Dense)            (None, 5)                 255       \n","                                                                 \n","=================================================================\n","Total params: 31,665\n","Trainable params: 31,665\n","Non-trainable params: 0\n","_________________________________________________________________\n","Epoch 1/100\n","18/18 [==============================] - 3s 112ms/step - loss: 1.0447 - accuracy
…
