…
//localhost:8080/","height":1771},"executionInfo":{"elapsed":269536,"status":"ok","timestamp":1676391807038,"user":{"displayName":"Shujaat Ali Shariati","userId":"00539791853302699711"},"user_tz":-300},"id":"vsPSnGLyoF6u","outputId":"c23aef21-4cac-41b0-9523-e3afc9833ff0"},"outputs":[{"output_type":"stream","name":"stdout","text":["Model: \"sequential_1\"\n","_________________________________________________________________\n"," Layer (type)                Output Shape              Param #   \n","=================================================================\n"," reshape (Reshape)           (None, 10, 1)             0         \n","                                                                 \n"," conv1d (Conv1D)             (None, 8, 64)             256       \n","                                                                 \n"," max_pooling1d (MaxPooling1D  (None, 4, 64)            0         \n"," )                                                               \n","                                                                 \n"," conv1d_1 (Conv1D)           (None, 2, 128)            24704     \n","                                                                 \n"," max_pooling1d_1 (MaxPooling  (None, 1, 128)           0         \n"," 1D)                                                             \n","                                                                 \n"," lstm (LSTM)                 (None, 128)               131584    \n","                                                                 \n"," dense (Dense)               (None, 50)                6450      \n","                                                                 \n"," dense_1 (Dense)             (None, 5)                 255       \n","                                                                 \n","=================================================================\n","Total params: 163,249\n","Trainable params: 163,249\n","Non-trainable params: 0\n","_________________________________________________________________\n","Epoch 1/20\n","1379/1379 [==============================] - 15s 9ms/step - loss: 0.1536 - accu
…
